nets/value.pth (torch, 647959 bytes, 25 tensors)

a1.weight f4 [16, 5, 3, 3]
000000 d8 49 3c bd 7d 7a 4f be 16 75 1b bd 2e d2 b5 be
       -0.04596886 -0.2026157 -0.03795346 -0.35511917
000010 a9 a7 3f 3d 71 3a 04 bc 09 5a b5 3b 7d 5f 44 bf
       0.046790753 -0.008070574 0.0055344147 -0.76708204
000020 fa 4e ff bb 41 42 11 3c 85 07 54 3c 7f 25 40 bc
       -0.007791397 0.008865894 0.012941246 -0.01172769
000030 bd 71 7c 3d f9 60 44 bd 5e 4c 00 3d c6 8f 72 bd
       0.061631907 -0.047944043 0.03132283 -0.059219144
000040 59 05 78 3f ae b0 9c 3c d6 56 c5 3a 41 a7 e8 bc
       0.9688316 0.019127216 0.0015055786 -0.028400065
000050 9e 62 16 bd c9 2d 05 3d 77 51 63 3e 02 de b2 bc
       -0.036715142 0.032514367 0.22199045 -0.021834377
000060 c8 d9 9c bc 4a cb 42 3f 42 d8 ec 39 5f ea 55 3d
       -0.019146815 0.76091444 0.00045174552 0.052225467
000070 9e c8 53 3e a0 42 33 3d 7e 9f 97 3e b0 52 9a bd
       0.20681998 0.04376471 0.2961387 -0.07535303
000080 44 d6 87 bd f2 ba e5 3c b8 72 20 be c9 fb 0d ba
       -0.06632665 0.028043244 -0.15668762 -0.0005416242
000090 be a8 88 bd 3f 13 8e 3d 68 40 6b 3c ce 8f d1 3d
       -0.0667281 0.06937265 0.014358617 0.10232507
0000a0 f0 34 a0 bc 98 45 82 bd 7f 77 95 bd 41 43 13 3c
       -0.019556493 -0.0636093 -0.07298183 0.008988203
0000b0 10 46 20 3d 23 c7 06 3d 12 9d 94 bd 46 ef c2 bb
       0.039129317 0.032904755 -0.07256521 -0.005948934
0000c0 87 39 93 3c d6 56 bf 3b 29 19 1b 3d 8a 02 ae bd
       0.017971767 0.005839209 0.03786579 -0.08496578
0000d0 ba d3 11 3f 0b 65 6e 3e 83 b7 67 3d 7e 12 a6 3c
       0.56963694 0.23280732 0.056571495 0.02027249
0000e0 3a 30 3f 3d 16 76 87 bb cf 70 0d bd b4 b5 9e 3d
       0.04667685 -0.00413395 -0.03453141 0.07749501
0000f0 fd 80 16 3b 21 1f 27 3f 68 aa 65 3e 1f 32 d8 bc
       0.0022965067 0.65281874 0.22428286 -0.026391087
000100 73 59 fa 3a 1e ac d9 bb d1 46 ed bd 56 a8 b5 3b
       0.0019100144 -0.0066428324 -0.11585773 0.005543749
000110 74 c8 77 bd 04 7b dd 3a 78 cc 3b 3e 10 a5 4c be
       -0.0604939 0.0016897623 0.18339717 -0.19984841
000120 3b 2a c6 3a 22 c7 c7 bc 4b 85 99 bd e5 8d 0d bd
       0.0015118787 -0.024386946 -0.07496127 -0.03455915
000130 ee e6 5c be a3 20 eb bd a2 47 35 bc 7e ad 7e 3d
       -0.21572468 -0.11480834 -0.011064442 0.062177174
000140 e2 6c af 3d 0c ff 6f 3c 18 41 8f bd 95 d0 db 3c
       0.085656896 0.01464821 -0.069948375 0.026832858
000150 92 9a 1e 3d 50 5b fa 3d a5 07 83 bd 14 47 75 bd
       0.03872163 0.12224448 -0.063979425 -0.05988224
000160 1d ee 75 bc af c4 dd ba fa ff 40 bd 90 fd e5 3d
       -0.015010384 -0.0016919578 -0.04711912 0.11230004
000170 37 3e 7e bd 65 09 c0 bf 95 74 2e 3e 5f 6a 8c be
       -0.06207105 -1.5002867 0.1703666 -0.27424905
000180 31 2c b0 bd 13 4c 43 bf ac 2c 31 be 5a c9 93 bc
       -0.08602179 -0.76287955 -0.17302197 -0.018040348
000190 ff fd a2 bd f2 fa 1c 3c 5d dd 97 3f 45 01 93 bd
       -0.07958602 0.009581314 1.186443 -0.071779765
0001a0 c0 bf 71 3e f6 f2 74 bd c3 d5 18 3f d9 5b 15 3e
       0.23608303 -0.059802018 0.59701174 0.14585818
0001b0 7d f1 61 3d 93 58 ef bc 38 ce 90 3d 3c 93 4e bf
       0.05516194 -0.02921704 0.07070583 -0.8069341
0001c0 57 9f 1a bd 48 ea d6 3d 23 a8 d9 3d 4d 0f 8c be
       -0.037749615 0.10493904 0.10627773 -0.27355424
0001d0 7d f1 c7 bb 6e 94 27 3d 79 86 37 bd cd 16 b5 bc
       -0.0061017857 0.040913038 -0.044805977 -0.022105599
0001e0 fc 75 15 3e 18 91 b4 bd 6e 18 fa 3d c8 fe b9 3c
       0.14595789 -0.08816737 0.12211691 0.022704497
0001f0 9a f0 80 3e 58 1c bf 3d 82 64 a0 bd b7 78 98 bc
       0.25183564 0.09331578 -0.0783167 -0.018612249
000200 c6 52 22 3d 4d b8 80 3d a4 30 7a bc a7 37 1d 3d
       0.03962972 0.062851526 -0.015270386 0.038383152
000210 d1 8d 49 3c ff b9 0a bc 61 75 3b bd 31 9d 38 bd
       0.012301878 -0.0084671965 -0.045766238 -0.045071784
000220 04 c9 c4 bd 90 7b 60 bd 4b fe a2 bd 97 99 80 3f
       -0.09608653 -0.05480534 -0.07958659 1.0046872
000230 c2 51 6e be 8e 1b 80 bd 4d 5c 6c be d9 24 31 be
       -0.23273376 -0.06255256 -0.23082085 -0.17299213
000240 2f be 1c 3e 61 27 2f 3e b7 72 88 3d ca 6a 65 bd
       0.15306924 0.17104866 0.06662505 -0.056010045
000250 f8 65 db 3e c7 97 c2 3d 64 e6 d3 bb 27 35 f8 3c
       0.42851233 0.095016055 -0.0064666737 0.030298783
000260 7b 31 fa 3c 88 e2 a1 bc eb c1 d9 bb 22 04 f8 3d
       0.030541172 -0.019761339 -0.0066454313 0.12110163
000270 87 a6 a0 bc 02 9e 85 bf f0 c3 f1 3c 84 a0 8e 3d
       -0.019610656 -1.0438845 0.029512376 0.0696421
000280 00 b6 37 3e e6 69 12 3e ee 00 13 3e 44 55 07 3e
       0.17940521 0.1429821 0.14355823 0.1321612
000290 7c 92 3f be 77 71 fd 3d e7 2f 0a 3f b5 ec 82 3d
       -0.18708223 0.12375157 0.53979343 0.063928045
0002a0 12 2c b5 bd 29 ae 00 bc 3f db 99 3d 5d 7e cf bd
       -0.08846296 -0.007854023 0.07512521 -0.10131524
0002b0 12 c5 92 bd 4b 6b da 3d 46 c5 04 3d 09 06 20 3e
       -0.071664944 0.10664996 0.032414697 0.15627302
0002c0 33 51 f1 bd 6a cf d7 3b bb eb 5d 3d 01 9d ca bd
       -0.11783066 0.006586005 0.05417989 -0.09893227
0002d0 1c f0 e7 3d a1 3d 24 3e ab fb a4 be 7e b5 4c bc
       0.11325094 0.16039135 -0.32223257 -0.012494443
0002e0 ed 7c 97 3d 82 af f2 3d b7 b9 c2 bd 6d 85 6a 3e
       0.073968746 0.11849882 -0.095080785 0.2290246
0002f0 1f c4 35 be d2 a6 e0 3b 4e 2d 80 bb ae fe 2f 3e
       -0.17750596 0.006855824 -0.0039116507 0.17186996
000300 31 6a 4a 3c 26 c9 7b 3e 5b 66 35 3d f7 3d 0f 3e
       0.01235442 0.24588451 0.044287067 0.13988481
000310 71 ca 7e be ba 09 64 3e e3 4f ae bc 52 2a 02 bd
       -0.24881913 0.22269335 -0.021278327 -0.03177864
000320 e5 ea ea 3c b1 20 22 3e 38 8e 0b be ff fd e2 bc
       0.02867646 0.15832783 -0.13628471 -0.027709005
000330 cf a8 01 bc 6d 83 6e 3d 74 34 a7 3d 2b 69 20 3e
       -0.007913782 0.058230806 0.081643015 0.15665118
000340 c2 06 d2 3d d5 6c 3a 3f 8d ed 8a bc 34 84 fb 3e
       0.10255195 0.72822315 -0.016958976 0.491243
000350 f3 43 89 3e de 2e 53 3d 77 d1 96 3e 79 30 23 3d
       0.26809654 0.051558368 0.29456684 0.03984115
000360 cb f9 34 3b 97 2d cb 38 2f df 00 bd 76 37 6c bd
       0.0027614709 9.688286e-05 -0.031462844 -0.05767008
000370 d0 23 a6 3d fa 5c 97 3d 3d cf fd 3c 80 49 8c 3d
       0.081122994 0.07390781 0.030982608 0.068499565
000380 23 44 13 be 9c 6b 71 3e f4 7e ab 3d 87 ff 2d 3e
       -0.14381461 0.23576206 0.08373824 0.16992007
000390 b7 a8 c6 3e 6b af 83 3e e7 6c 62 3e e0 58 5b bf
       0.38800594 0.2571977 0.22111855 -0.8568249
0003a0 98 37 7a 3d 3d ac c8 3e 42 b5 84 3d 80 ac 9b 3d
       0.061088175 0.39193907 0.06479885 0.07601261
0003b0 55 2c f0 3c 54 26 29 3c 7e 3e 62 3e 14 b9 97 bc
       0.029318014 0.01032408 0.22094151 -0.01852087
0003c0 15 23 ff be 3e f6 b3 3c ce 06 c6 bd 27 09 6b 3d
       -0.49831453 0.021968003 -0.09669267 0.057381775
0003d0 31 1b b1 bc 14 9a a9 3d 15 f5 0e 3e 3c 9b f8 bd
       -0.021619411 0.08281341 0.13960679 -0.121389836
0003e0 9b 58 10 3e 5d 2e b6 bf f0 9e 5f 3d f2 e4 d4 bd
       0.140963 -1.4232899 0.054594934 -0.1039523
0003f0 bb ba 2b be 56 8f 6f 3d 40 15 2f be ec ae b7 bd
       -0.16770451 0.058486305 -0.1709795 -0.089689106

a1.bias f4 [16]
000000 7e 73 93 bd fd f4 85 be 75 fb 30 be eb 94 cc be
       -0.07199763 -0.26163474 -0.17283423 -0.39957365
000010 ca e0 f5 be 26 96 2a 3e d2 dd 35 bd c0 c3 e5 be
       -0.48023063 0.1665884 -0.044400997 -0.44875908
000020 06 9a 0f 3e 99 12 34 bd 5d d7 9d bd 72 fa cc bd
       0.14023599 -0.04396305 -0.07707093 -0.10008706
000030 4e 06 1b be 9c a7 8d bc 25 8f b4 bd dd 18 89 3e
       -0.15139124 -0.017291836 -0.08816365 0.26776782

a2.weight f4 [16, 16, 3, 3]
000000 e9 f5 a3 3d 22 2e 23 3e 2f 7d ad 3c 1c 0d c6 bb
       0.08005888 0.15935567 0.021177856 -0.006044043
000010 90 fb 36 3e 24 6f a0 be 89 b5 ad bd e2 46 ad 3e
       0.17869401 -0.31334794 -0.08481891 0.33843142
000020 f1 90 2f be e7 ba 07 bf 03 2b 11 bd d7 ea 15 3e
       -0.17145135 -0.53019565 -0.03544141 0.14640366
000030 1f 6f a7 3e 6d 16 2a bd 6a 86 df 3e 40 17 cb 3e
       0.32701966 -0.041525293 0.43657237 0.39666176
000040 54 49 63 3c 4a 11 22 3f 66 32 fe bc a4 c4 5d bd
       0.013872463 0.6330763 -0.031029891 -0.05414261
000050 09 bd 3f bc 58 bf 7f bc 0b ec 28 be 12 07 fd be
       -0.011702784 -0.015609585 -0.16496293 -0.49419457
000060 d4 1f 1c 3e 4e f9 fc 3e ec ce 33 3e a0 e1 51 bb
       0.15246516 0.49408954 0.17559403 -0.0032025352
000070 02 b4 8d 3d ad c3 15 3e 7e 9f cc 3d 0c 38 9b bd
       0.069190994 0.14625426 0.09991358 -0.075790495
000080 e3 a7 08 3f 7d 00 be bd de e5 ba bd a0 6d da 3e
       0.53381175 -0.09277437 -0.09125875 0.42661762
000090 d5 1e 2a be c0 4b 5d 3d b6 b4 50 bb 75 60 46 3d
       -0.16613324 0.05402732 -0.0031845993 0.048431832
0000a0 ed b7 e1 bc e1 88 15 3e 97 84 83 3e 65 ae 2c 3e
       -0.027553523 0.14602996 0.25687096 0.16863401
0000b0 e5 ac 89 3d 37 a9 53 3e 8f fa a0 be d3 96 34 be
       0.0672243 0.20670019 -0.3144116 -0.1763566
0000c0 de f6 21 bc a6 5e 5f bd d9 11 eb bd ee 83 43 bd
       -0.009885518 -0.054533623 -0.114780135 -0.04773324
0000d0 b0 d0 73 3d 9c 4a 99 3d 5c de 2d 3e 25 e0 d7 3d
       0.05952519 0.07484934 0.16979355 0.10540799
0000e0 84 d1 1e 3b 97 a8 27 3e a1 81 d4 3d 2d c6 a1 bd
       0.0024233768 0.16372906 0.10376287 -0.07899127
0000f0 0e 03 4f 3e 21 35 2b 3d b1 2e 4e be 96 5d 34 3d
       0.20216009 0.041798715 -0.20134999 0.044034563
000100 f8 01 92 3a 87 bc e0 3e 4f 84 64 3e 66 27 55 3c
       0.0011139503 0.43893835 0.22316097 0.013009882
000110 8c bf 47 3f cb ac df bd 1d b0 45 bb 4e ae a3 3f
       0.7802665 -0.109216295 -0.0030164786 1.2787569
000120 10 95 6c 3d 7c 22 e4 bd 72 b5 50 bc ff 92 0b bc
       0.057759345 -0.1113939 -0.012738572 -0.008518933
000130 a0 52 0f be 37 6b 6a be b5 42 6e 3d 40 25 0b be
       -0.13996363 -0.22892462 0.058169086 -0.13588428
000140 d7 3a c5 bd 15 c2 a2 3b 2a 98 77 bd 33 df 89 be
       -0.096303634 0.004966984 -0.06044785 -0.269281
000150 fe c5 d3 bd 94 18 09 bd db 4f 55 be 69 3e 49 3e
       -0.103404984 -0.033470705 -0.20831244 0.19652714
000160 1e eb 81 bd 4d f5 89 bd 92 fc 19 be b2 4b f1 bd
       -0.06343673 -0.067362405 -0.15037754 -0.11782016
000170 b4 57 61 3e 48 a3 47 3e db 04 8f 3e a1 05 3d 3d
       0.22006112 0.1949588 0.27933392 0.046147946
000180 e6 95 1b bd 11 4b 18 be 4e 7c 70 bd 0d 97 94 bc
       -0.03798475 -0.14872386 -0.058712296 -0.018138433
000190 54 4b 63 bd 51 85 bf be 26 d9 ec be b9 3b 93 3d
       -0.05549176 -0.374064 -0.4625942 0.071891256
0001a0 88 ef 27 bf 6c 26 87 bd 81 b7 27 bc f4 e5 94 be
       -0.6559987 -0.06599125 -0.010236622 -0.2908169
0001b0 2c 62 93 bd d3 43 b5 bd 35 2d 1b bd 85 51 92 3d
       -0.07196459 -0.08850827 -0.03788491 0.07144455
0001c0 8a ff 66 bd f1 c6 cc 3d 43 3e 36 3e 60 ea 48 3e
       -0.056396045 0.099988826 0.17797188 0.19620657
0001d0 9f ba 94 3e a8 21 d7 3c 14 63 4b 3d 3f c7 7d 3e
       0.2904863 0.026261166 0.049655035 0.24783038
0001e0 1d 37 e3 3d 81 0b 7e be d9 6e 01 3e bc 39 00 3e
       0.110944964 -0.24809076 0.12639941 0.12522024
0001f0 ed 52 9b 3e e7 31 bc bd 1c b0 8a bd 57 97 4a be
       0.30336705 -0.091892056 -0.067718714 -0.19784294
000200 e6 35 75 3e 13 c6 ed 3d 66 7e 6a 3e ad 59 9d 3e
       0.23946342 0.11610045 0.2289978 0.3073248
000210 cb 3a 57 3d 59 f9 42 be c1 49 c2 bc 1c f4 62 be
       0.052546304 -0.19040431 -0.02371681 -0.22163433
000220 ee ec fd bc 29 fd 17 bc 52 ac c5 3d dc 1f 49 3e
       -0.030996766 -0.009276667 0.09652008 0.1964106
000230 bb bc 1f 3e d9 95 4b bb 1c 7c cc be 86 0f 38 bd
       0.15599339 -0.0031064658 -0.39938438 -0.04493668
000240 2a 69 a5 bd a1 2b bb 3d 9f c7 96 bd 96 fc ae bb
       -0.08076699 0.09139181 -0.073622935 -0.005340169
000250 30 1b b3 be ab bd 4e bf 0d 41 89 3d af 9c 84 3e
       -0.3498168 -0.8075816 0.067018606 0.2590079
000260 50 37 7e be 63 af 12 3e d7 fb af be f2 99 a1 3d
       -0.24825788 0.14324717 -0.34371826 0.07890691
000270 db 78 f0 3d 1d 91 5f 3e cb 93 5f 3e 03 93 87 3e
       0.11741801 0.218327 0.21833722 0.2647935
000280 3b 13 70 3e ab 02 7c 3d ed 89 09 bd e1 3f 30 be
       0.23444836 0.061525982 -0.033578802 -0.17211868
000290 9f 6f d6 3d d0 12 ad 3d 72 07 03 be 97 4b 79 bf
       0.10470509 0.08450854 -0.12795809 -0.97380966
0002a0 c2 9a 64 3d ca 45 c1 3e 96 52 1b c0 a8 2a 48 bc
       0.05581165 0.37748557 -2.4269156 -0.012217201
0002b0 85 bf a6 be bb 61 32 3d eb 5d 3f 3d f8 ec 30 bd
       -0.32567993 0.043550234 0.046720427 -0.04319474
0002c0 11 c3 92 3c 8d 58 ff bd 94 d9 b9 be 41 87 2c bf
       0.01791528 -0.124680616 -0.3629881 -0.6739388
0002d0 59 8d 03 3c 3d f5 0d bc b2 50 0c bd 0c 69 f1 bd
       0.008029305 -0.008664426 -0.034256645 -0.11787614
0002e0 fa 19 3c 3e a2 1c 0c bd 7c 0a 6a 3e 3a c5 a4 be
       0.18369284 -0.034206994 0.22855562 -0.32181722
0002f0 2e cd ab be dd d6 1e 3e 78 18 91 3d 8c 0d 73 39
       -0.33554977 0.15511651 0.07084745 0.00023179332
000300 ae 15 18 3e 2b 4d 2e 3e 51 eb 5e bd 7b bd f7 3d
       0.1485202 0.17021625 -0.054423634 0.120966874
000310 3f 61 60 3e 40 9b ce 3e c6 59 a0 3d cf 1f 01 be
       0.21912096 0.4035282 0.07829623 -0.1260979
000320 e6 70 dd 3d 69 72 03 3d c9 2c 3c 3e d9 d8 f4 bc
       0.10812549 0.032091532 0.18376459 -0.029888557
000330 93 b2 16 3d 27 3d e5 bd 74 57 cf be af 2f 3b bd
       0.036791395 -0.111933045 -0.4049641 -0.04569977
000340 38 cd 13 3d 9d c1 bd bd fe 6c 49 3e 10 33 95 3c
       0.036084384 -0.092654444 0.19670483 0.018212825
000350 1d b2 93 3e 95 93 81 3e 35 73 20 be f5 30 b6 3e
       0.28846827 0.2530791 -0.15668948 0.35584226
000360 69 05 c0 bc 14 45 11 3e 45 86 bc bd 76 bf 30 3a
       -0.02344008 0.14186507 -0.092052974 0.0006742397
000370 1e bb bc 3d 8b f0 70 be fe f7 22 3e f2 f8 ca 3d
       0.09215377 -0.2352926 0.15914914 0.09910764
000380 a9 02 a7 be 07 17 5c bc 1d 97 c2 3c 30 11 e2 bd
       -0.32619217 -0.0134332245 0.023753697 -0.110384345
000390 a5 d5 21 be ae be 37 be 9a e3 15 bf da 25 cf be
       -0.15804155 -0.17943832 -0.5855042 -0.40458566
0003a0 b2 18 c8 be 38 bd 80 be 98 8b 04 3e f0 32 f4 be
       -0.3908134 -0.25144362 0.12943876 -0.47695112
0003b0 c7 01 3d 3e 40 e3 29 be 5c 04 de bd 55 b6 e0 3d
       0.18457709 -0.16590595 -0.10840675 0.10972277
0003c0 6f b4 d7 be ac ec f9 be f4 47 88 be 94 7a 3f be
       -0.42129847 -0.4881338 -0.26617396 -0.18699104
0003d0 55 dd 18 bf ba 41 3b 3e f2 31 ce 3d cc 53 c0 3d
       -0.59712726 0.18286791 0.1006812 0.09390983
0003e0 eb d5 32 bd d9 b1 3b be cd ca e3 3e e5 9d e3 be
       -0.04366104 -0.18329562 0.44490662 -0.444564
0003f0 44 65 c5 3e c8 25 c5 be eb ee a3 3e 6a 2c 03 3d
       0.38553822 -0.38505387 0.32018217 0.03202478

a2.bias f4 [16]
000000 8f 60 50 3c fe 4a 8e 3e 30 5f 50 3e 2a 96 3d 3e
       0.012718334 0.2779159 0.20348811 0.18514314
000010 5b 7d 50 39 ce da 52 bd ca cb 68 be e1 ca b3 bb
       0.00019883124 -0.0514782 -0.2273399 -0.0054868315
000020 62 36 54 3d 67 bf a6 3d 90 5b 30 3e 9e d8 f4 3d
       0.051809676 0.08141976 0.17222428 0.11955379
000030 f4 a3 e5 be 2a dd 8c 3d af a4 7e 3c e6 b0 0a 3d
       -0.4485165 0.06878121 0.015542193 0.03386011

a3.weight f4 [32, 16, 3, 3]
000000 b3 14 69 3e 7c b3 00 3e be 64 00 bd 40 0a e5 3d
       0.22761802 0.12568468 -0.031346075 0.11183596
000010 91 a2 05 3e 60 2e 4f 3e 26 cb 69 3e 6c a4 c3 3e
       0.13050295 0.20232534 0.22831401 0.3821138
000020 c2 8c 86 3e b1 d0 17 bf 31 24 a9 be bd 1a 69 3e
       0.26279265 -0.5930281 -0.33035424 0.22764106
000030 37 b9 51 bf 23 45 6c 3e 34 0d fd 3e b3 0a d4 bd
       -0.8192324 0.23073249 0.49424136 -0.10353603
000040 e3 a9 85 3e b8 b8 1a 3e a6 bd 3d be ed c2 99 be
       0.26106176 0.15109527 -0.18529376 -0.3003153
000050 64 9d 20 bf de dd 1d 3f 16 90 f0 be e1 e5 3b be
       -0.6274016 0.6166667 -0.4698493 -0.1834941
000060 f1 d6 9d bd a9 dc 49 bf 37 88 e0 3e a8 b4 bc 3e
       -0.077070124 -0.78852326 0.43853924 0.3685658
000070 30 c9 93 be 41 62 ab be e8 b7 3f be b8 8a 41 3e
       -0.2886443 -0.334734 -0.18722498 0.18900573
000080 74 17 88 bd 28 fa a8 3e 3e d6 b1 be 45 df 07 be
       -0.06645098 0.33003354 -0.34733766 -0.13268764
000090 70 7d 1d 3d 0d 60 33 be c0 db 78 3e b0 f3 45 be
       0.038449705 -0.17517109 0.24302578 -0.1933124
0000a0 84 d5 82 3d 9d ab 43 be d0 5f 57 3e 28 2a 87 3e
       0.06388381 -0.19108434 0.21032643 0.2639935
0000b0 4a a4 52 3e d9 9f 07 bd 89 ae b0 3d e8 be 31 3e
       0.20570484 -0.033111427 0.0862704 0.17357981
0000c0 8d 0d 02 3f 3b a4 e6 3e 4b 5d ea 3d e5 b1 a4 be
       0.50801927 0.45047173 0.114435755 -0.32166973
0000d0 1f 08 ad bb 50 81 99 3d af 18 86 be 61 d9 68 3e
       -0.005280509 0.074953675 -0.26190707 0.22739173
0000e0 f2 73 ef 3e ed c7 1b 3f c8 3d 0a be fa 63 49 3e
       0.46768147 0.6085194 -0.1350013 0.19667044
0000f0 89 55 46 bf ba ac 8c 3e 36 5e 50 bd 75 01 99 be
       -0.77474266 0.2747553 -0.050871097 -0.29883924
000100 83 75 b2 3e 0c 3a b7 3c 0d 75 1b 3e d5 ff a9 3e
       0.3485528 0.022366546 0.1518137 0.33202997
000110 de 4a 84 be 92 6f 07 bf cd a1 7a be 5e dd 8b 3e
       -0.2583837 -0.5290462 -0.24475785 0.27317327
000120 18 87 62 be 24 32 32 be 77 e6 3e 3e c4 56 c4 bd
       -0.22121847 -0.1740194 0.18642603 -0.09586862
000130 f8 85 0e bf 0f 74 78 3f 9b a4 cf be 20 69 3e 3f
       -0.5567317 0.9705209 -0.40555272 0.7437916
000140 5a 2a 4b bf 5c 3b 16 be 7e 49 62 3d b8 ae c3 be
       -0.793615 -0.14671081 0.05524587 -0.38219237
000150 e5 a8 03 3f 1d e8 0f 3f 08 83 c5 be 46 96 22 3e
       0.5142959 0.5621355 -0.3857653 0.15877637
000160 a5 70 86 be 06 7a 0c 3f f6 bb de 3e 4e 73 5f be
       -0.26257816 0.54873693 0.43502778 -0.21821329
000170 ac e2 32 bf a3 c9 a9 3b 5a 7d ec 3e 41 cc e1 bc
       -0.69877124 0.0051815077 0.46189386 -0.027563216
000180 fe b0 a4 3e 0c 9c f3 3b e8 15 cd bd 73 ef ef be
       0.32166284 0.0074343737 -0.10013944 -0.46862373
000190 96 61 78 be ef d0 d1 bd b7 84 57 be cb 7c 70 be
       -0.24255976 -0.10244929 -0.2104672 -0.23485105
0001a0 e4 e0 4a be a9 08 17 3e d8 d2 07 bf e9 10 ab 3e
       -0.19812351 0.14749397 -0.530561 0.3341134
0001b0 ea 47 a4 3c 84 75 fa bd 9d 0c ea be 30 a5 5b 3f
       0.020053823 -0.122294456 -0.45712748 0.8579893
0001c0 2e 8a 96 be 0b 86 48 be 85 11 30 3e d9 c0 00 3e
       -0.29402298 -0.19582383 0.17194183 0.12573566
0001d0 58 fe a6 3d b5 0e d5 3e f4 ab c9 bc 04 32 aa be
       0.08153981 0.41612783 -0.024618126 -0.33241284
0001e0 3b 2f 89 be cb 7b ec 3d f0 0a b3 3c 71 8f 0d be
       -0.26793846 0.11547049 0.021855801 -0.1382425
0001f0 c1 ca b2 be fa d7 85 3e 73 a2 0a 3d 1f 5e ed be
       -0.34920314 0.2614134 0.03384633 -0.4636087
000200 35 b9 98 be 68 70 09 bf 2f 45 1a 3d d2 45 e2 be
       -0.29828802 -0.53687143 0.037663635 -0.44193894
000210 77 d9 8c bd ea 90 d9 3e 3c f6 ce be af 6f db be
       -0.068774156 0.42493373 -0.40422237 -0.42858645
000220 5f d2 07 3f f5 9c 23 3e 2b 3f 45 be da a8 ac be
       0.53055376 0.15977843 -0.19262378 -0.33722574
000230 3b 15 96 bd 80 17 ba 3b a9 4a 99 3d 96 4e 83 3d
       -0.07328268 0.005679071 0.074849434 0.064114735
000240 54 7a 98 bd 7a d3 d8 bd a1 7d 80 3d 48 6d 01 bc
       -0.07445207 -0.10587211 0.06273962 -0.00789959
000250 bf 5d 63 bd 26 45 3a 3d 5e bd 44 bc 0b 1c cc ba
       -0.055509325 0.0454761 -0.012008039 -0.0015572322
000260 2a 3b ad bd c8 8e c0 bd c0 f8 19 be 1a 62 29 be
       -0.0845855 -0.09402233 -0.15036297 -0.16541329
000270 a0 c5 a3 bc c9 73 4b bd 79 3c 36 3d 45 4f bb bc
       -0.019991696 -0.04967097 0.044491265 -0.022864947
000280 9d fe 96 3d 37 f2 01 3c 2b 55 00 be 79 0e ef bc
       0.073727824 0.007931284 -0.12532489 -0.029181706
000290 76 50 33 be 20 72 07 be e5 66 f0 3c 37 46 14 b9
       -0.17511162 -0.13227129 0.029345939 -0.00014140537
0002a0 d5 58 ec bd 7b a9 4e bd 5a 76 97 3d 15 f4 d9 bc
       -0.11540381 -0.050454598 0.07395621 -0.026605645
0002b0 49 64 35 be b8 f9 59 be 85 65 da bd d3 02 6b be
       -0.17714037 -0.21286666 -0.106638946 -0.22950296
0002c0 46 06 b2 bc 66 f1 f7 bd f7 e6 0f bb 65 72 59 3b
       -0.021731507 -0.1210659 -0.0021957734 0.0033179757
0002d0 24 1a 68 bd f3 0e 11 be 09 fc 16 bc 49 28 a8 3c
       -0.056665555 -0.14165859 -0.009215363 0.020527022
0002e0 79 4d 0d be 51 13 43 3d 66 ac 2e bd 4b ac 71 bd
       -0.13799085 0.047625843 -0.04264488 -0.059002202
0002f0 6f 2d db 3c fd f3 34 3d eb b7 1a 3c e0 48 8a 3d
       0.026755063 0.044177998 0.0094432635 0.06752181
000300 00 2d 7b bd 2d d8 ad bd 98 0c 32 bd 26 8d ab bc
       -0.061322212 -0.08488498 -0.04346904 -0.020941328
000310 1c 86 a4 bd 5a ad 1b bd 2c ef e0 bd 26 a4 07 3d
       -0.08033392 -0.038007118 -0.109831184 0.03311553
000320 d0 34 1d bd ed b0 27 be 17 a1 81 bd 9c 76 bd bd
       -0.038380444 -0.16376086 -0.063295536 -0.092511386
000330 b8 c4 a4 3c 8b b5 9b bd 6e a7 f2 bd 8b 4e 34 bd
       0.020113334 -0.07602986 -0.11848341 -0.044020217
000340 98 11 cc bc b8 9e 4b bd fe a1 3f 3d 8e 47 53 bd
       -0.024910733 -0.049711913 0.046785347 -0.05158191
000350 6a 0e 30 3c 36 a2 84 bc 98 70 0e bd 16 a9 27 bd
       0.010745624 -0.01619063 -0.034775347 -0.040932737
000360 04 ea 98 bc 74 0b d4 bd 1b f1 fc 3c f1 fd a9 bd
       -0.018666275 -0.10353747 0.030876687 -0.083003886
000370 47 c3 f5 bd 0e 5a 1d 3d 56 0a 36 3c 09 ed c1 bc
       -0.12000137 0.03841596 0.011110863 -0.023672597
000380 11 ca a8 3c a0 9f 22 be 59 5a 9b 3b b4 73 21 be
       0.020604165 -0.15881205 0.004740995 -0.15766793
000390 63 3a 33 bd 18 46 20 be 92 f9 f6 bd c8 9f b0 bd
       -0.043756854 -0.15651739 -0.120593205 -0.08624226
0003a0 37 ea 38 3b 82 e3 30 be d8 de 77 3d 48 e1 d8 bc
       0.0028215775 -0.17274287 0.060515255 -0.02647461
0003b0 ee 17 08 be 61 25 a0 bc 78 86 1e be bb 32 ba bd
       -0.13290378 -0.019549074 -0.15480983 -0.09091707
0003c0 a3 07 6e bc 65 bf 9c 3b 73 35 81 bd 67 60 1d be
       -0.014528188 0.004783558 -0.06309023 -0.15368806
0003d0 92 d4 36 be 01 34 d8 bd 02 a8 74 bd 0e 0f 52 bd
       -0.17854527 -0.10556794 -0.059730537 -0.05128389
0003e0 49 c9 e7 bd 4a d1 96 bb 6f bc b5 bd 18 79 9f bb
       -0.11317689 -0.004602586 -0.088738315 -0.0048667304
0003f0 7a 56 96 bd 27 b3 77 bc 26 e4 85 bd 7b e9 f2 bd
       -0.07340713 -0.015118397 -0.065376565 -0.11860939

a3.bias f4 [32]
000000 e2 a7 a0 be 8d 17 39 be c7 9c 3e be fe da c5 3d
       -0.31378084 -0.1807539 -0.18614493 0.0966091
000010 60 44 0b 3f ed 16 bb bd 4b 0f ec bc 7b 56 c4 3a
       0.54401207 -0.09135232 -0.028815886 0.0014979386
000020 91 3d b0 bc 44 e6 d4 bd 9b b6 21 be af 68 3b bf
       -0.021513732 -0.10395482 -0.15792315 -0.7320661
000030 64 b6 8a bd 29 54 53 3d 5e 19 c4 be ec c8 a1 bd
       -0.067730695 0.051593933 -0.38300604 -0.07899651
000040 b0 2f 09 be 7e 77 2a 3f c7 ca e1 be 20 e3 1d 3e
       -0.13397098 0.6658858 -0.4410002 0.15418673
000050 fd 8c 0f 3e 27 d5 6e 3d e0 fe c7 3c 6b a5 83 be
       0.14018627 0.058308747 0.024413526 -0.2571214
000060 f2 d5 bb 3e 74 73 df bc 49 8c 99 be 63 1b 62 be
       0.36686665 -0.027276732 -0.29989842 -0.2208076
000070 30 30 64 3f 70 01 9c bd b9 69 24 3f 43 b0 1d 3f
       0.8913603 -0.07617462 0.6422382 0.6159708

b1.weight f4 [32, 32, 3, 3]
000000 81 df 27 bf 2e b3 59 3f 85 7e 2a bc 4f 4e 88 be
       -0.65575415 0.8503903 -0.010406141 -0.26622245
000010 cc ab 80 be 81 8d 18 be 6c 7b 81 bd 2a 66 34 be
       -0.2513107 -0.1489773 -0.06322369 -0.17617097
000020 e0 de 80 be b6 ef b9 3d 39 df 80 3b e4 c3 be bd
       -0.2517004 0.09078924 0.00393286 -0.09314707
000030 21 37 87 bd 4b 11 5d bc d0 ca dd 3d eb 20 dd 3c
       -0.06602312 -0.0134928925 0.10829699 0.026993236
000040 5a 28 d0 bd 0c 70 1a bd b1 99 71 be 9b f8 0b 3f
       -0.101639464 -0.037704512 -0.23593785 0.54676217
000050 51 b5 30 3e 8c 63 89 bd d4 6f 7b be 7a 86 3d 3e
       0.17256667 -0.0670844 -0.24554378 0.1850833
000060 f3 ba 0d be c4 21 f9 3e 81 ac 1d bd 92 c4 c1 bd
       -0.13840847 0.48658574 -0.03849459 -0.09461321
000070 11 30 a9 3c 83 2e 25 bd ce 3e 6e 3d a6 6e 00 3e
       0.020652803 -0.04032756 0.058165364 0.12542209
000080 fe 09 02 3e e9 5f 1c 3e 64 39 2b be 33 13 b4 be
       0.12699124 0.15270962 -0.16721112 -0.35170898
000090 57 3a 1f be 24 bd e6 3d 1b 62 46 bc 2d f7 7e 3e
       -0.15549599 0.112665445 -0.012108351 0.24898978
0000a0 66 80 03 be 60 89 e7 bc 93 23 a8 3d c4 a9 77 3e
       -0.12841949 -0.028263748 0.0820991 0.24185854
0000b0 01 e5 af 3e f5 e9 6c be 6c e8 5f 3e 99 33 2f be
       0.34354404 -0.23136123 0.21866006 -0.17109527
0000c0 40 ba 65 bd 79 f4 28 3e 30 c9 20 3e e1 69 f3 be
       -0.056085825 0.16499509 0.15701747 -0.47541717
0000d0 e0 9b 52 be c0 97 26 bf 79 37 33 3d 10 4d 35 3d
       -0.20567274 -0.650753 0.043754075 0.044262946
0000e0 c3 87 a5 3d 75 e7 31 bd 48 6d b9 bd d6 42 91 3d
       0.08082535 -0.043433625 -0.09054047 0.07092826
0000f0 0d cb 16 3c 49 6b 39 bc 92 bc a3 3c 59 15 ac bb
       0.0092036845 -0.011317083 0.019987378 -0.0052515683
000100 2d fd ec bc fe dd 63 bd f6 5c 34 3d 88 6b 58 3d
       -0.028929317 -0.05563163 0.044033967 0.052836925
000110 51 d3 cf 3a 40 ec 88 bb 47 0b ab 3c fa 41 ea bc
       0.0015855824 -0.004178554 0.0208794 -0.028595913
000120 8f ef ca be a9 33 c2 be 66 62 88 be 33 99 06 be
       -0.39635894 -0.3793004 -0.26637572 -0.13144378
000130 7e 94 dd bd a3 5a a9 3d ca e2 3a 3e 21 c4 ab 3b
       -0.10819338 0.08269241 0.18250576 0.0052418862
000140 5f 44 93 be 49 b4 c8 3d 48 5f 15 bd 63 20 ed bd
       -0.287631 0.09800012 -0.03646782 -0.11578443
000150 a2 14 26 3d ac 76 7a 3c ec 7d 92 bc 75 ef 6c 3d
       0.04054702 0.015287083 -0.01788231 0.05784555
000160 51 84 4f bd fd da 25 3d f7 9d fc bc 76 d2 31 bd
       -0.050663296 0.040492047 -0.030837042 -0.0434136
000170 2c 40 a5 3e 91 a0 bb be 7e da d4 bd e5 55 a8 be
       0.32275522 -0.3664594 -0.103932366 -0.32878032
000180 35 df 51 be 91 99 11 bd d3 ba 82 3e 7c 94 e9 be
       -0.20495303 -0.035546843 0.2553316 -0.45621097
000190 4d 22 df 3e 50 5c 9a 3d 61 d6 b6 be 5f 99 dc bb
       0.43580857 0.075371385 -0.35710433 -0.0067321504
0001a0 16 e5 1f 3e 78 00 9d 3e c6 2b aa bd 9d 57 bd 3e
       0.15614733 0.3066442 -0.0830913 0.36980906
0001b0 e6 25 0e bf b7 1b 25 bd 9b 19 c5 be 71 26 85 be
       -0.5552658 -0.040309634 -0.38496098 -0.2600589
0001c0 0b 31 82 bd 30 ea 61 bd 57 41 b8 be 86 7a 74 be
       -0.063570105 -0.05515498 -0.3598735 -0.23874864
0001d0 9e f1 06 3d d9 bd 8d be ae ec ae be aa d1 c4 be
       0.032945268 -0.27683905 -0.34164947 -0.3844121
0001e0 cc 08 8c bd 70 3f bc 3b c5 27 b8 bd 1c 2d c9 3c
       -0.06837615 0.005744867 -0.089919604 0.024557643
0001f0 51 69 ef bc 3c 17 bf bd ab 8c cf 3e a2 fb 7b be
       -0.029225023 -0.093306035 0.4053701 -0.24607709
000200 b7 fc 4b be c1 38 09 3d 9b 61 32 bd 6d 01 65 bd
       -0.19920622 0.03350139 -0.043550115 -0.055909563
000210 38 fe 40 be 6c 67 95 bd cb d1 98 bd bc 20 06 3d
       -0.18846977 -0.07295117 -0.0746189 0.03274606
000220 af 50 2a 3c 33 ea 27 3d 48 a0 07 3d 32 f8 61 39
       0.010395213 0.040994834 0.03311184 0.00021550132
000230 2d 57 9a 3c b4 8b 37 bc f9 94 22 3d f7 81 78 bd
       0.018840397 -0.011202741 0.039692853 -0.06067082
000240 8e 2e 68 3d cc 4b 26 3a 38 4d ec bc f7 12 30 3c
       0.056685023 0.0006343692 -0.028845415 0.010746709
000250 15 68 92 3c 91 46 84 bc 53 58 68 bb 56 55 c7 bc
       0.017871896 -0.01614693 -0.0035453036 -0.024332684
000260 09 99 40 bd e9 8b bc 3b 04 68 53 bd 69 75 56 3e
       -0.047020946 0.0057539833 -0.05161287 0.20943226
000270 5b 60 14 3c 61 10 95 3d 23 b6 ba bd 13 a1 b1 3d
       0.009056176 0.07278515 -0.09116771 0.086733006
000280 cc 99 65 3e 32 81 ba 3e 0e 07 e9 3c 0b fa 3b bc
       0.2242195 0.36426693 0.028445747 -0.011473189
000290 b9 82 37 3d 77 27 9b bc cc 17 e9 3c 69 fa a2 be
       0.0448024 -0.018939717 0.02845373 -0.31831673
0002a0 34 6f 8e bd a4 75 84 be 2a 94 26 be 54 d7 97 3d
       -0.06954804 -0.25871003 -0.16267458 0.074141175
0002b0 7b 32 42 3e 29 ae 6d 3e 16 fd 69 3e eb 87 60 3e
       0.1896457 0.23210968 0.22850451 0.21926849
0002c0 cf 18 6c 3e 5e 2b 42 3f a9 51 99 be 51 91 e6 3d
       0.23056339 0.75847423 -0.29945114 0.11258186
0002d0 84 46 9b 3d c7 e6 d8 bd b3 a1 cf be e5 b4 e7 3d
       0.07581809 -0.10590892 -0.40553054 0.113138
0002e0 cc 7a 18 be f3 63 c7 be 34 79 d0 3d fc 7d 08 bc
       -0.14890593 -0.38943443 0.10179368 -0.008330818
0002f0 1b f7 15 be 19 ce 55 be bc 61 3b be 3b 3f 27 bc
       -0.14645045 -0.20879401 -0.18299001 -0.010207946
000300 98 d4 f5 bc 7f 97 c1 3d 49 76 2c 3d f1 e0 a2 be
       -0.0300086 0.09452724 0.042104993 -0.31812242
000310 8b 30 a7 bd e0 db 7a be d2 d6 18 3f ad b4 66 3e
       -0.08163556 -0.24497938 0.5970279 0.2252986
000320 7d 93 7a 3e 84 6d a1 3d e1 e1 7b bd b3 19 0a be
       0.24470325 0.078822166 -0.06149471 -0.13486366
000330 05 bd 79 3e c5 2e 08 3e 0a 84 f5 bd 03 04 a6 be
       0.24388511 0.13299091 -0.11988075 -0.32424936
000340 7e 56 b1 3e a9 04 3b 3e c1 c5 03 3e 44 58 a7 3d
       0.346363 0.18263496 0.12868406 0.08171132
000350 63 02 08 3e b0 ab bb be 2e 4a bf be 41 ae 70 bd
       0.1328216 -0.36654425 -0.37361282 -0.05875993
000360 6d e3 16 3e 14 09 19 3e 29 d9 71 be 64 89 76 be
       0.14735194 0.1494487 -0.23617996 -0.24075848
000370 77 9d c3 3e ad 8c 94 3c dc f8 cf 3e 24 72 eb be
       0.38206074 0.018133486 0.40619552 -0.4598552
000380 e1 e6 10 3e 0b 0b e0 3c c4 b6 59 3c e4 80 6d 3d
       0.14150573 0.027349016 0.013288204 0.057984248
000390 a6 9b 93 bd b0 65 97 bd 60 05 81 3d 99 f3 ca 3d
       -0.07207422 -0.07392442 0.06299853 0.09909744
0003a0 68 b6 54 3d 5d 22 05 3d 57 e9 02 bd 57 92 5f 3e
       0.05193177 0.032503475 -0.03196081 0.21833168
0003b0 00 62 07 3e b4 3f 0a ba c0 5e dc 3c 8a 85 5b be
       0.13220978 -0.0005273775 0.02690065 -0.2143766
0003c0 ef 05 36 3e 9a 52 f7 be a7 a7 0c be 6e 77 cb be
       0.17775701 -0.48305207 -0.1373583 -0.39739555
0003d0 26 e4 b7 3e aa ac a5 bb 42 67 3c be 4c d5 bf 3e
       0.3591625 -0.0050559836 -0.18398765 0.3746742
0003e0 4d 0a 44 3c de 3e 0d bf 0d 69 5d 3c a9 ae 2c be
       0.0119653465 -0.5517405 0.013513816 -0.16863503
0003f0 69 f4 47 3d 92 8e 67 3e 50 04 3f 3e aa 71 45 be
       0.048817072 0.2261298 0.18653989 -0.1928164

b1.bias f4 [32]
000000 94 38 9f 3e d7 11 d5 bd 57 a4 1a bd 93 f4 fb bd
       0.31097853 -0.10403793 -0.037754383 -0.12302508
000010 e0 19 9b 3e 87 fb 96 be 05 a2 ce bd 6a 4b a6 bd
       0.3029318 -0.29488775 -0.100894965 -0.08119853
000020 51 dd 3f bf e8 25 1d 3e 1f 68 07 bf f1 5f 89 3d
       -0.7494708 0.15346491 -0.5289325 0.067077525
000030 aa b4 1b bf a1 81 b8 be e5 1e 43 3e fd a9 ab bc
       -0.60822546 -0.360364 0.19054754 -0.02095508
000040 f4 5c 9c bd 2e 55 91 3e c9 1e d3 3e 0e 22 8d bd
       -0.07634917 0.283853 0.41234425 -0.06891261
000050 7b 8d 80 be b2 b6 52 bd fa e4 83 3e 15 9e d2 be
       -0.2510794 -0.051443763 0.25760633 -0.41136232
000060 4e 0c 04 3c be d1 39 3e b5 e7 7f be ff b9 22 be
       0.008059574 0.18146417 -0.24990733 -0.15891264
000070 ec 03 a8 3d 0c 08 87 3e 5e ac 4a 3e ef a2 e0 3d
       0.08203873 0.26373327 0.19792315 0.10968577

b2.weight f4 [32, 32, 3, 3]
000000 fd b3 30 3e 57 01 28 3e 07 72 24 bf 63 2b ea 3d
       0.1725616 0.16406761 -0.6423649 0.114340566
000010 24 65 c1 bd e3 d6 82 3d 32 14 c8 be 2a 32 43 be
       -0.09443119 0.06388643 -0.39077908 -0.19062105
000020 8f 7c 0d be f6 bd a8 3c fd b4 07 bd 64 25 0d bd
       -0.13817047 0.020598393 -0.03313159 -0.034459487
000030 45 8c 0c 3d 99 78 0e 3d 8f bf 90 3c fa 7c 15 bd
       0.03431346 0.03478298 0.017669467 -0.03649614
000040 7d 77 1a bd 0d f8 2d 3b e0 b3 47 3e aa a3 50 bd
       -0.03771161 0.0026545555 0.1950221 -0.050937332
000050 27 fb 34 3e 5a ee 0e 3d fd ee 39 bf 11 a3 aa bd
       0.17673932 0.03489528 -0.7263029 -0.08331884
000060 62 a0 49 3f 0c eb b0 be 27 94 23 be 43 b3 a9 3b
       0.7876035 -0.34554327 -0.15974484 0.0051788404
000070 ec 30 e5 3b d5 21 72 bb e7 a3 50 bd 90 44 05 bd
       0.0069943573 -0.0036946435 -0.05093756 -0.03253609
000080 33 78 8a 3b 85 4d d3 bc 7e cd 2a bd 18 42 33 bd
       0.0042257546 -0.0257938 -0.04169988 -0.043764204
000090 66 44 4c bf db 45 43 bf c4 bb 2a bf 7a d5 56 3e
       -0.7979187 -0.76278466 -0.6669276 0.20979872
0000a0 6e 6e 9f be 31 1f 9f bc f3 98 92 3e 62 f3 b7 be
       -0.3113894 -0.019424053 0.28632316 -0.35927874
0000b0 bb 7c 06 3e e3 57 14 3f df 75 fd 3e 46 07 d6 3d
       0.13133518 0.57946604 0.4950399 0.10450606
0000c0 1b 01 bf 3e 38 b0 34 3e 86 c0 07 be c1 74 50 3e
       0.3730553 0.17645347 -0.13257036 0.20357038
0000d0 d4 74 25 bf 9b 94 ed bd 19 aa 48 3e 24 7c c2 3e
       -0.6463139 -0.1160061 0.19596137 0.37985337
0000e0 a2 b1 4e 3e ab 92 05 3f d9 03 fb bd 83 ae a3 be
       0.20184949 0.5217692 -0.12256593 -0.3196908
0000f0 b4 75 09 3f 0e ca ae 3e 26 0a 98 bc a5 62 43 bd
       0.53695226 0.3413853 -0.018559527 -0.047701497
000100 0f 73 db 3c d7 68 79 3c a4 ad 00 bd ac 78 57 3d
       0.026788263 0.01522275 -0.031415597 0.052605316
000110 60 1c 17 3d a1 cc 79 bd 72 ed 21 bd db 08 16 3c
       0.036892295 -0.060986165 -0.039533086 0.009157385
000120 b6 9f 48 3e 4f 85 82 be 07 a9 92 3e be c1 fe 3d
       0.19592175 -0.2549233 0.28644583 0.12439297
000130 4d 74 3b 3e a2 c8 ba 3d 24 36 db 3d f7 1a 51 3e
       0.18306084 0.09120299 0.10703686 0.20420443
000140 d1 c5 ea 3e 37 07 22 be f7 54 0d 3e 4c e0 ef bd
       0.45854047 -0.15823065 0.13801943 -0.11712703
000150 3a 69 91 be 13 2f 71 be 0a ed 08 bf 4e 9e ee 3e
       -0.28400594 -0.23553114 -0.5348669 0.46605152
000160 23 95 93 be 47 ef e5 be e8 9c 38 3e 42 11 f8 be
       -0.2882472 -0.44909117 0.18028605 -0.48450667
000170 43 8b 89 3e 5e 58 e7 3d cc 7c 44 bd 81 67 20 be
       0.2686406 0.112961516 -0.047970578 -0.15664484
000180 a2 cb 8b bc 5b 12 e2 be e7 af 2b 3e 9e e4 00 bf
       -0.017064873 -0.4415463 0.1676632 -0.5034884
000190 db 11 b4 be 15 7c e8 bd 51 9a 26 be 22 1c c2 bd
       -0.35169873 -0.11351792 -0.16269805 -0.09478022
0001a0 9b 97 cc be ae 0c 7c 3e 84 9d 6a be 0a ec 0f 3d
       -0.39959416 0.24614212 -0.2291165 0.035137214
0001b0 c5 f6 84 3e dc 60 74 be e0 0e 39 bb 37 a3 9f be
       0.2596952 -0.23865074 -0.0028237626 -0.3117921
0001c0 90 80 6f bf 64 5a 35 bd cc cf 04 bf f5 31 0d bf
       -0.93555546 -0.044275656 -0.5187957 -0.55154353
0001d0 52 b3 11 bf 7c ca ac be 7e 90 d7 3d ba a4 04 bf
       -0.56914246 -0.33748233 0.105256066 -0.5181385
0001e0 3e f1 ca be f1 c8 17 be 5e 69 26 3e 4a 15 92 3d
       -0.39637178 -0.14822747 0.16251132 0.07132967
0001f0 61 06 82 3e 6d 4a a7 3e 5b 14 44 3e 3b ea 21 3c
       0.25395492 0.3267397 0.1914839 0.009882505
000200 9c 33 1d 3f d0 0e 9a be 13 ee 14 be 3a 3f 90 3e
       0.61406875 -0.30089426 -0.14543943 0.28173238
000210 dd 6f 1f 3e 78 2d de 3e c9 23 4d 3d 25 41 0c bd
       0.15570016 0.43394065 0.050082956 -0.034241814
000220 fa 82 d2 3b c9 57 30 3c 79 cf 81 bd 0c e2 03 bd
       0.006424305 0.010763117 -0.063384004 -0.032197997
000230 b0 b2 93 3c 1b 50 09 3d 6d f6 77 bd 16 33 59 bd
       0.01802954 0.03352366 -0.060537744 -0.053027235
000240 37 e9 1a 3b 48 2e 0b 3e 14 63 31 be 62 29 a0 3e
       0.0023637542 0.13591874 -0.17322952 0.31281573
000250 3e 3a ec be 1e 9a 57 be a2 ac 3f bf 27 11 c8 bc
       -0.46138185 -0.21054885 -0.7487279 -0.024422241
000260 1f 49 0c be 24 56 87 3e 40 07 15 bf 4e ec d6 be
       -0.13699768 0.26432908 -0.5821419 -0.4197716
000270 00 df 3e bd af d9 51 be 96 09 d4 be 8f 05 17 3e
       -0.046599388 -0.20493196 -0.41413563 0.14748214
000280 92 62 b2 3e 67 a8 2c 3e 4a 7c 4a bf ce 98 91 be
       0.34840828 0.16861115 -0.790959 -0.28436893
000290 d2 5e 07 3f e8 c3 9b be 1e 62 cd bc 88 89 b8 be
       0.5287906 -0.30422902 -0.0250712 -0.36042428
0002a0 88 bf 1d 3e eb e8 04 3c 3d 22 15 be bb c3 97 3c
       0.15405095 0.008112173 -0.14563842 0.018525949
0002b0 90 cc 27 3d 4b 1e 61 3d f7 cd 21 bd ad d2 88 3c
       0.04096657 0.05496053 -0.039503064 0.01670202
0002c0 0e b0 26 bd d1 ed d4 3c b5 43 ff bb 82 db 81 3d
       -0.040695243 0.025992306 -0.0077900537 0.06340696
0002d0 27 39 d9 3d 5b 5f c0 bd 07 95 3d bf 2d 12 e2 3d
       0.10606604 -0.093931876 -0.7405552 0.11038623
0002e0 a2 ff 03 bf 53 c0 43 3d 19 ef 4c bd b2 e3 18 bf
       -0.5156194 0.047790837 -0.05003271 -0.59722435
0002f0 32 f5 54 3e 18 6b 37 3c 22 57 59 3d 3e 60 4a 3d
       0.2079666 0.011194967 0.053061612 0.04940819
000300 55 ef 26 bd a5 de 45 bd b9 7e af bc 07 94 30 3d
       -0.04075559 -0.048308033 -0.02142273 0.04310992
000310 41 ed ff 3b cc 53 45 bc b1 d3 c5 be 54 71 7b 3d
       0.0078102653 -0.0120439045 -0.3863807 0.061387375
000320 50 ad 06 3e bd a3 c1 3d a0 70 19 3f 87 66 aa 3c
       0.13152051 0.09455059 0.5993748 0.020800842
000330 4a 68 87 3d 05 88 13 bf df 79 21 3f e2 22 e4 3d
       0.066116884 -0.57629424 0.63076586 0.11139466
000340 47 d2 e0 be cd 33 9c bd a6 a0 a8 3e da 4c 64 3e
       -0.4391043 -0.07627068 0.32935065 0.22294942
000350 82 5d be bd 73 98 48 bf b0 8e 88 3b ec c1 f7 be
       -0.09295179 -0.7835762 0.0041674003 -0.48390138
000360 a1 9c 4c 3e 98 4c dc be e2 50 98 3e 47 e7 41 3d
       0.19981624 -0.43027186 0.2974921 0.047339704
000370 22 2d 0f 3e 13 75 28 3e 37 84 55 bf 7f ee e4 bd
       0.1398206 0.1645091 -0.8340487 -0.11178302
000380 11 ae 77 bd 71 57 8a be b5 90 95 bd 7a b1 af 3e
       -0.060468737 -0.27019837 -0.07302991 0.3431509
000390 fa 47 b4 be ec 9b a9 3d d7 fa 5c be b3 81 b7 be
       -0.35211164 0.08281693 -0.21580063 -0.3584114
0003a0 05 9b ed 3d 73 8b 74 3e ec 51 f6 be 55 15 8f 3e
       0.11601833 0.2388132 -0.48109376 0.27945963
0003b0 91 22 9e 3d 16 bf ae 3d 2f 2a 20 3f 92 93 4d 3e
       0.07721437 0.085325405 0.6256437 0.20075825
0003c0 b3 8b 55 3f 4e 01 06 3e cf 9f c6 3d 54 23 0a bf
       0.8341629 0.13086435 0.0969845 -0.53960156
0003d0 e6 10 c8 bc a7 4e a7 be 97 89 c1 bd 44 53 0d bf
       -0.02442212 -0.32677194 -0.09450071 -0.5520518
0003e0 d7 c5 08 bf de af 3d bd 8c 77 13 3e b2 c1 2d 3e
       -0.5342688 -0.0463103 0.14401072 0.1696842
0003f0 4e 3a e0 3e 53 1e cb be 34 fa 08 bf 49 57 7c 3e
       0.43794483 -0.39671573 -0.5350678 0.24642672

b2.bias f4 [32]
000000 b6 e5 15 bf bc d3 0e be 2a 1e 03 bf 6a bf 14 be
       -0.58553636 -0.13947958 -0.512179 -0.14526144
000010 55 3f 86 bd 6d 16 6f 3f 37 11 d0 3e 6d 62 99 be
       -0.065550484 0.93393594 0.40638134 -0.29957905
000020 f8 f3 50 be 4e 6b 8c be b4 c2 ea ba 06 99 0c 3e
       -0.20405567 -0.27425617 -0.0017910809 0.13730249
000030 92 77 d3 be 78 80 a6 bd 98 2a 05 be 69 91 25 bf
       -0.41302162 -0.08129972 -0.1300453 -0.64675003
000040 40 8d 75 bd 06 79 a5 bd de d4 0b be d1 f5 33 3d
       -0.05994916 -0.08079724 -0.13655421 0.0439356
000050 ca e0 f3 bd 6f 52 c0 3e 32 7a 8f 3e de 04 0c bd
       -0.119081095 0.37562892 0.28022915 -0.03418433
000060 b1 da 60 3e c6 48 aa 3d f5 e9 02 be fb 18 8e be
       0.21958424 0.08314662 -0.1278456 -0.27753434
000070 2e 85 81 3c 96 ae 85 be fa 9d 9d 3e 6e e7 26 be
       0.015810575 -0.2610976 0.3078459 -0.16299221

b3.weight f4 [64, 32, 3, 3]
000000 b9 0d 8c be 38 30 44 be c0 a3 5b 3e e2 80 11 bf
       -0.2735422 -0.19159019 0.21449184 -0.56837285
000010 7b 6d 7e be b5 d1 33 3e 38 89 2b bf cc bb f5 be
       -0.24846451 0.17560466 -0.67006254 -0.4799484
000020 02 a1 0b 3f 8d 62 85 3a 6c c7 c5 bc 22 5a 33 bd
       0.54542553 0.0010176465 -0.024142943 -0.04378713
000030 82 5c 3d bd 30 51 6a 3d f1 a8 62 3c 5d d3 33 bb
       -0.0462308 0.057206333 0.013834224 -0.0027439215
000040 8d d7 6d 3c 59 a5 5d 3b 8c 9e 49 3e 15 74 34 3d
       0.014516723 0.0033820479 0.19689387 0.044056017
000050 cb f7 d2 3e e4 47 12 be 67 63 0f 3e 28 a1 10 3f
       0.41204676 -0.14285237 0.14002763 0.56495905
000060 90 cf 84 be 7e d9 8b bd 1d 15 b4 3d 4a 02 15 3f
       -0.25939608 -0.06828593 0.087930895 0.5820662
000070 4b a5 35 3f 28 03 e4 3d c1 6d dd 3e d4 94 4b be
       0.7095534 0.111334145 0.43247798 -0.19880992
000080 73 a0 17 bd af 9c b1 bc 2c 6b 3f be 1e 05 bf 3e
       -0.03701825 -0.021681158 -0.18693227 0.37308592
000090 c9 86 ae 3e b4 68 91 be 05 fc cf 3d 20 0c 3a bf
       0.34087208 -0.28400195 0.10155491 -0.7267475
0000a0 4a 75 57 3e 77 64 ac be ee 53 a7 be 9a a7 ad bd
       0.21040836 -0.336704 -0.3268122 -0.08479233
0000b0 b0 5d 1e 3f bd 0e 82 3d 53 d3 ae 3d 06 c4 c5 be
       0.61861706 0.06350467 0.08536401 -0.38626117
0000c0 14 04 14 bf bb 2e fd bd b8 62 f5 3d 50 62 b7 be
       -0.5781872 -0.12362429 0.1198172 -0.35817194
0000d0 73 61 b4 be dd 55 bc be a6 34 56 3e ed 19 2e be
       -0.35230598 -0.36784258 0.20918521 -0.17002077
0000e0 cd df 8b be c2 7a 5e 3e 3e ff 72 bb 29 7f 1d 3f
       -0.27319184 0.21726516 -0.0037078406 0.61522156
0000f0 ae 3a 84 bf 57 16 2a 3e e9 8f 23 be a1 4c 6b bf
       -1.0330408 0.16610084 -0.15972866 -0.919138
000100 74 27 3c 3e 50 59 16 3e c5 ce fc bd 06 8e 73 bd
       0.18374425 0.14682508 -0.12344126 -0.059461616
000110 6f 09 55 3e 02 3b e7 bd 7c 27 aa be ef 7a da be
       0.2080438 -0.11290552 -0.3323325 -0.42671916
000120 a2 56 a8 3c cf 8d 10 be 3a f7 76 3f 53 f6 ba be
       0.020549122 -0.14116596 0.9647099 -0.36516055
000130 5d f9 cc 3d ba ba 2d be 95 cb 7b 3f 80 16 8f 3d
       0.100085 -0.16965762 0.98357517 0.069867134
000140 89 49 a0 3d 2b 5e a2 be b4 b1 21 3e 14 ba 81 be
       0.07826526 -0.3171247 0.15790445 -0.2533728
000150 45 b7 78 3d e0 6a 84 3d fa ee 30 3e 70 6a a8 be
       0.060721654 0.06465697 0.17278662 -0.32893705
000160 f0 17 16 3c 6c 39 0b 3f 53 1e f7 bd db c0 f0 bc
       0.009160981 0.54384494 -0.12066331 -0.029388836
000170 ba 7f 89 3e 80 f9 5b be 98 b3 a6 bd 55 d0 a6 be
       0.2685526 -0.21481895 -0.081397235 -0.3258082
000180 12 c4 e0 3d de 1a 0c bd b9 87 7b be ed 34 da be
       0.109748974 -0.03420531 -0.24563493 -0.42618504
000190 6b 1f 80 3e bf 6e 16 be 93 4d 47 bf ef 61 86 be
       0.2502397 -0.14690684 -0.77852744 -0.26246592
0001a0 03 c8 35 3e af b6 27 3e 4f 26 94 be 40 ec 28 3e
       0.1775208 0.16378282 -0.28935477 0.16496372
0001b0 43 eb da be 7d b8 1f 3f e9 54 d3 be 58 52 3c bf
       -0.42757615 0.6239088 -0.4127572 -0.73563147
0001c0 97 6f 16 3f cc a9 29 3f d4 d0 20 bf 7e ed 7c bc
       0.5876402 0.66274714 -0.62818646 -0.015437482
0001d0 85 40 e6 3d 8e 14 7a 3d ec 47 41 bd 43 ca 2a 3d
       0.11242775 0.06105476 -0.04718773 0.041696798
0001e0 2b c1 56 bc af ca 1e bd 53 c7 bd bc 79 b4 4f bd
       -0.013107578 -0.038767513 -0.023166334 -0.05070922
0001f0 59 07 a5 3c 44 b4 c9 3c 34 da 90 3d f3 f9 20 bc
       0.020145105 0.02462209 0.07072869 -0.009825218
000200 c4 ad 99 3c e0 4c 45 3d 3d 09 26 3d a6 0e 17 3d
       0.018759616 0.048169017 0.040536154 0.036879204
000210 a3 fb 26 bd 4a 88 be 3c 49 c0 41 3d 9a 8c f7 be
       -0.040767323 0.023258347 0.047302518 -0.48349458
000220 b5 d5 15 be e5 b2 bf bc 98 fc 29 3f bd 55 0f 3e
       -0.14632304 -0.023400733 0.6640105 0.1399755
000230 de 8c f2 be c0 70 cb bd 1d 46 0a 3d f2 a7 1e bd
       -0.47373098 -0.09933615 0.03375827 -0.038734384
000240 5a 40 1d be a3 b8 07 3d cb f7 33 be 89 ba 11 3e
       -0.1535658 0.033135068 -0.17574994 0.14231314
000250 d7 07 17 3f 3e ca 7d be 7a c8 80 be 85 84 b1 3d
       0.5899634 -0.2478418 -0.2515295 0.08667854
000260 e5 2e 53 bf 86 e5 f4 bc cb 73 f2 bc 2a d1 1e bd
       -0.8249343 -0.029894602 -0.02959623 -0.038773693
000270 d3 25 18 3d 24 16 99 3d 0d 97 02 3c ef d4 52 3c
       0.037145447 0.07474926 0.007970584 0.01286815
000280 f3 d1 5d bc a8 52 1e bd fc 14 19 3f 1c 6b c2 be
       -0.013538825 -0.038653046 0.59797645 -0.37972343
000290 e7 ba 2b be 9e 12 15 3c cd e9 51 bf a8 e2 45 3c
       -0.16770516 0.009098677 -0.81997377 0.012077965
0002a0 7d d2 da 3e d6 ef a3 3c cc 16 88 3e 62 9c 26 3e
       0.42738715 0.020011824 0.26579893 0.16270593
0002b0 02 92 cc be d1 98 df be 22 14 06 3e 33 1d d1 3e
       -0.39955145 -0.43671277 0.13093618 0.4084259
0002c0 ac 2b 01 bf 28 36 46 3f 18 31 c9 be d1 25 b5 be
       -0.50457263 0.77426386 -0.39295268 -0.35380414
0002d0 d8 0b a3 be 9a f2 5e 3e 1e c3 6f 3c 84 ab 0b be
       -0.31844974 0.21772233 0.014633922 -0.13639647
0002e0 f6 f8 c7 be c4 3c b0 bd 2f cb 31 be 5f 88 60 3e
       -0.3905713 -0.0860534 -0.17362665 0.21927021
0002f0 b6 ac 88 3e 4a 56 cf be d4 66 71 be dd b0 d9 3e
       0.26694268 -0.4049552 -0.23574382 0.42517748
000300 75 33 a6 3d 1c 18 9b be 38 a6 3c be 8d 2b c9 be
       0.081152834 -0.30291831 -0.18422782 -0.3929104
000310 8a 77 9d 3d 32 0f 5c bf 78 23 42 be 37 a8 66 3d
       0.07688816 -0.85960686 -0.18958843 0.056312766
000320 1e cd a1 be c7 de 10 3f a7 4d d0 be d6 17 43 be
       -0.31601804 0.5658993 -0.40684244 -0.19052061
000330 44 08 a9 bd 94 04 81 3d 45 21 4d 3e bf 39 f5 3d
       -0.0825353 0.06299701 0.20032223 0.11973905
000340 dc ea 6f be bd 1b a9 3e 70 3e 9a bb d3 ae 81 bf
       -0.23429435 0.33028975 -0.00470715 -1.0131477
000350 5d 10 9d be ef 66 5c be ef 2c 65 3e 30 29 a2 be
       -0.30676547 -0.21523641 0.22380422 -0.3167205
000360 e8 1b a6 be d8 ba a5 bd 12 a7 67 3c 8d 02 09 3f
       -0.32443166 -0.08092278 0.014138954 0.5351952
000370 ce 7d 93 3e 6d 63 ef 3d cb e8 03 be d9 a1 ce bd
       0.2880692 0.11688886 -0.12881772 -0.10089464
000380 ff 7f 8a be 93 9b 8d be 1e 38 27 3e 53 47 c0 3e
       -0.27050778 -0.27657756 0.16330001 0.37554416
000390 7a 58 3e bf a6 9c 0e be b4 0b df 3e 06 11 78 3e
       -0.74353755 -0.13926944 0.43563616 0.24225244
0003a0 02 57 2e be 41 0d 9c 3d 26 7d c6 3e 75 d0 f9 bd
       -0.17025378 0.076197155 0.38767356 -0.12197963
0003b0 f1 f9 b1 3d db d7 42 be f4 a0 31 3e 57 f3 45 bf
       0.08690251 -0.19027655 0.17346555 -0.7732443
0003c0 be c9 f7 3e 3a 78 86 3e 0c ac 9f be 6a 52 d4 3c
       0.48396105 0.262636 -0.3118595 0.025918204
0003d0 4c 66 f5 be 4e b9 b5 be ce 97 03 bf 28 ee d5 3d
       -0.4792961 -0.3549294 -0.5140351 0.10445815
0003e0 1c a1 18 3f f2 b6 b8 3e 41 24 64 3e 98 f7 c7 bc
       0.59620833 0.36077076 0.22279455 -0.024410054
0003f0 65 cd 31 be 24 6e 3a be 30 49 c5 3e 3a 6b 51 3e
       -0.17363508 -0.18206078 0.385324 0.2045106

b3.bias f4 [64]
000000 96 f5 ea bd 42 13 d3 bd 96 00 7c bd f1 43 0d bd
       -0.11472623 -0.103064075 -0.061523996 -0.034488622
000010 a3 58 73 be ae b5 5f bd 73 89 57 bd a9 30 82 3e
       -0.23764281 -0.054616623 -0.052621316 0.2542775
000020 f3 2f 75 3e 1d 32 93 3e 1e d4 02 be 2f de 13 bd
       0.23944072 0.2874917 -0.12776229 -0.036100563
000030 c9 9e 01 be 0e 05 44 be 9e f6 c8 be 60 78 19 bc
       -0.12658228 -0.19142553 -0.39250654 -0.009367079
000040 e9 41 a7 bc 42 4a 18 be cc a8 6e bd 61 1d 46 3e
       -0.02041717 -0.14872077 -0.058266446 0.19347145
000050 b9 46 4c 3e 86 68 20 be 8d d8 a2 3e c7 fc a3 bd
       0.19948854 -0.15664873 0.3180584 -0.08007198
000060 9e 73 17 be b1 8d ee bd d3 00 e8 be f0 0b d9 bd
       -0.14790198 -0.11648119 -0.4531313 -0.1059798
000070 24 0a ba bd 7e 5d 84 bb 03 dd dd 3c 7f 0f 25 be
       -0.090839654 -0.0040394654 0.027082926 -0.16119193
000080 d3 c9 41 3d 41 14 ce 3e c8 01 06 bd 43 89 60 be
       0.047311615 0.40249828 -0.032716542 -0.21927361
000090 29 25 c6 bd f4 b2 f5 3d 5b e7 0b be 32 42 b8 bd
       -0.096750565 0.11997023 -0.13662474 -0.08997001
0000a0 47 50 0f be 7b e7 9e 3e b2 5b 0a bf 43 9d e9 bc
       -0.13995467 0.3103598 -0.54046166 -0.028517371
0000b0 fa d1 d2 bc 9b 04 5a be 73 af 92 bd 49 0b 96 bd
       -0.02573489 -0.2129082 -0.071623705 -0.07326371
0000c0 8d 8c ef bd 69 c6 75 be b4 77 8b bd c4 d7 8b bd
       -0.1169673 -0.24001469 -0.06809941 -0.068282634
0000d0 da ff 58 be 9c 2d 84 3e 0f ee 74 bd 00 7b c6 bd
       -0.2119135 0.25816047 -0.059797343 -0.09691429
0000e0 5c f4 cb be 8d f6 c8 be 6e 9c 8d bd 74 a9 94 3e
       -0.3983487 -0.39250603 -0.06914602 0.29035532
0000f0 e1 a6 1d 3e f2 2a b5 3e 26 09 6d bd 6a 08 75 be
       0.1539569 0.35384327 -0.057870053 -0.23928991
